p1_navigation/checkpoint.pth (torch_old, 28451 bytes, 6 tensors)

fc1.weight f4 [64, 37]
0	0x3c828a53	0.015935099
1	0xbbabf6b1	-0.0052479138
2	0xbe8964dd	-0.26834765
3	0xbd42002f	-0.047363456
4	0x3d05aafe	0.032633774
5	0xbe25f338	-0.16206062
6	0xbd4397bd	-0.04775213
7	0x3eb1d84b	0.3473533
8	0xbdbfcac3	-0.093648456
9	0x3e81014c	0.25196302
10	0xbdf50947	-0.1196466
11	0x3d54b6e3	0.051932227
12	0xbdb33012	-0.08749403
13	0xbe7e5b54	-0.24839526
14	0xbe5650c8	-0.20929253
15	0x3d68dbc0	0.056850195
16	0xbdad1ddd	-0.084529616
17	0x3cc90061	0.024536313
18	0xbda5b4ee	-0.0809115
19	0x3c041b34	0.008063126
20	0x3de5d076	0.112214014
21	0xbd90f59e	-0.07078098
22	0x3de960ad	0.113953926
23	0xbcaaea3c	-0.020863645
24	0x3a52f0d8	0.0008046753
25	0xbc9d0242	-0.019166116
26	0x3cdec241	0.027192237
27	0xbe0cbd2b	-0.13744037
28	0x3e1fe318	0.15613973
29	0xbe02422a	-0.12720552
30	0x3c2f98b3	0.010717559
31	0x3d986d1f	0.07442688
32	0xbe250035	-0.1611336
33	0xbe197c03	-0.14988713
34	0xbe0f7097	-0.14007793
35	0xbd0c0eee	-0.034193926
36	0xb99a62e5	-0.0002944685
37	0x3e106d97	0.14104305
38	0x3d508dd7	0.05091652
39	0x3dc3a66f	0.09553229
40	0xbb2346d6	-0.0024914048
41	0xbdd19e95	-0.10235325
42	0x3d5eda3c	0.054407343
43	0xbe0f16e4	-0.13973576
44	0xbdd8e2a1	-0.10590101
45	0xbe3869b3	-0.18009071
46	0xbe74f1ed	-0.23920412
47	0x3d7c9f3c	0.061675295
48	0xbd852ea2	-0.06503035
49	0x3d480413	0.04883201
50	0x3db7d25e	0.08975671
51	0x3dafecaa	0.08590062
52	0xbc935789	-0.017986076
53	0xbd6a3c4d	-0.057186414
54	0x3e27f173	0.164007
55	0x3d8dd340	0.06925058
56	0x3d166317	0.036715593
57	0xbe198ddc	-0.14995521
58	0x3d1b9466	0.03798332
59	0xbda53a0b	-0.080677114
60	0xbcbf5540	-0.02335608
61	0x3dfb1acf	0.12260973
62	0x3cad47da	0.021152426
63	0x3ca01714	0.019542255
64	0xbcb8cb4c	-0.022557877
65	0xbe1a18c1	-0.15048505
66	0xbe7cbed9	-0.24682178
67	0x3dcf3a36	0.10118525
68	0x3e0643eb	0.13111846
69	0x3d2b4875	0.041817147
70	0xbe043437	-0.12910543
71	0xbdadb3ee	-0.084815845
72	0xbdd925e2	-0.10602929
73	0x3d2a2598	0.04153976
74	0x3e335d39	0.1751603
75	0x3e3b4d81	0.18291284
76	0x3da03b49	0.07823808
77	0xbdd36a80	-0.10323048
78	0x3daa198d	0.08305655
79	0xbe60ac19	-0.2194065
80	0xbc2fd3c1	-0.010731638
81	0x3eb33ba4	0.3500644
82	0x3e45c9c7	0.19315253
83	0xbe915555	-0.28385416
84	0x3e58a0b8	0.2115506
85	0x3d1b3f32	0.037902065
86	0xbd2ae88c	-0.04172568
87	0xbdfe1d9f	-0.124079935
88	0xbeccbf6a	-0.39989787
89	0x3cfa7860	0.030574977
90	0x3e1a278f	0.15054153
91	0x3dc2431e	0.09485458
92	0x3c92ffac	0.01794418
93	0xbe5e9f4c	-0.21740454
94	0xbd1f6708	-0.038916618
95	0x3d265568	0.040608793
96	0x3e32b68a	0.17452446
97	0x3d42f655	0.0475982
98	0xbe266fc0	-0.16253567
99	0xbe117fc4	-0.14208895
100	0x3e69455c	0.22780365
101	0x3e8d1202	0.275528
102	0xbb8b3aba	-0.004248944
103	0xbdf2aeb9	-0.11849732
104	0xbe5e7133	-0.2172287
105	0x3cd76a70	0.02629587
106	0x3deb464f	0.1148802
107	0xbe1873c1	-0.14887907
108	0xbe2379f8	-0.15964496
109	0xbc879dcb	-0.016554734
110	0xbc33a5eb	-0.010964851
111	0x3ec5128f	0.38490722
112	0xbf03cb7f	-0.51482385
113	0xbeb3aad5	-0.35091272
114	0xbe639a43	-0.22226815
115	0xbfdf8b0c	-1.7464309
116	0xbcb00b4e	-0.021489765
117	0xbc2204fe	-0.009888886
118	0x3da245dd	0.079234816
119	0x3dab89dc	0.08375904
120	0x3ddcf562	0.107889906
121	0xbcd8ab1e	-0.026448783
122	0xbca93ad4	-0.020657934
123	0xbd07aa0a	-0.033121146
124	0xbd13318b	-0.03593592
125	0xbd04e2f9	-0.03244302
126	0xbe51c3a6	-0.2048479
127	0x3cba8e55	0.022772947
128	0x3c06ad45	0.008220022
129	0xbd2d458e	-0.04230266
130	0xbc90403e	-0.017608758
131	0xbdea2a12	-0.114338055
132	0xbd127762	-0.035758384
133	0x3dce8f16	0.10085885
134	0x3dc22fd4	0.09481779
135	0x3dd82ee6	0.1055582
136	0x3b8a0f07	0.004213217
137	0x3d9aadd2	0.07552685
138	0x3db4f57a	0.088358834
139	0x3dfa09d5	0.122089066
140	0x3d33460e	0.04376798
141	0x3cc949d4	0.024571337
142	0x3e12ea0a	0.14347091
143	0x3dae9675	0.08524791
144	0x3d52fd9d	0.051511396
145	0xbe195b6e	-0.14976284
146	0x3ce018db	0.027355602
147	0x3bbbaccf	0.0057273875
148	0xbcaa9384	-0.020822294
149	0xbe2fd95c	-0.1717276
150	0xbe1923f1	-0.14955117
151	0xbde8bcd0	-0.11364138
152	0xbc3a1bf2	-0.011359202
153	0x3d9baaef	0.07600962
154	0x3dc926a2	0.09821822
155	0x3bb4fc4c	0.00552324
156	0x3d751523	0.05983461
157	0xbdc70b95	-0.09719006
158	0x3e81658b	0.25272784
159	0xbec39cef	-0.38205668
160	0xbe6e8e83	-0.23296551
161	0xbe690e38	-0.2275933
162	0xbfa4b002	-1.2866213
163	0xbdd29d14	-0.102838665
164	0xbd8925cd	-0.06696663
165	0x3c6f5544	0.014607731
166	0x3d47368e	0.04863601
167	0x3de17c70	0.11010063
168	0xbdebc8ab	-0.11512884
169	0x3c2068bb	0.009790595
170	0x3d9582de	0.073003516
171	0x3c194b81	0.00935638
172	0x3cc7e82c	0.0244027
173	0x3d7e9494	0.062153414
174	0x3c913702	0.017726425
175	0x3d8ba88b	0.068192564
176	0xbd2691b0	-0.040666282
177	0x3d58250e	0.052769713
178	0x3c8a1897	0.016857428
179	0x3d8f14db	0.069864
180	0x3dcc346d	0.09970937
181	0x3d892f85	0.06698517
182	0x3e21a08d	0.15783902
183	0x3c6fbab9	0.0146319205
184	0x3bfe1ed0	0.007755138
185	0x3cb04cd5	0.021521011
186	0xbdc24f2a	-0.094877556
187	0xbce83c0f	-0.02834895
188	0x3c92a916	0.017902892
189	0x3e0be10b	0.13660066
190	0x3e82629e	0.25465864
191	0x3d2cb6f3	0.04216666
192	0xbdbde94a	-0.09273012
193	0xbea59087	-0.32336828
194	0xbfa02e8c	-1.2514205
195	0xbd5db930	-0.054131687
196	0xbd38170a	-0.044943847
197	0xbc40b46b	-0.011761765
198	0xbdef8535	-0.11695329
199	0xbd44d182	-0.048051365
200	0x3ccca015	0.024978677
201	0x3d9f935c	0.077917784
202	0xbe180050	-0.14843869
203	0xbda59b76	-0.080862924
204	0xbe36a19b	-0.17835085
205	0x3dc22f87	0.09481721
206	0x3ca73bc7	0.020414246
207	0x3dcf67f7	0.101272516
208	0x3d9ff7bc	0.078109235
209	0x3dcd0c77	0.10012143
210	0x3a6ab8a0	0.0008953903
211	0x3d4f7588	0.050649196
212	0xbd235c3c	-0.039882883
213	0x3c47e3ed	0.012200338
214	0xbbf787c1	-0.007554025
215	0x3d37ebb6	0.044902526
216	0xbd12e321	-0.03586114
217	0xbcdb71eb	-0.026787719
218	0x3d242702	0.040076263
219	0xbd353e17	-0.044248667
220	0x3c3318a6	0.01093117
221	0x3d7e0701	0.0620184
222	0xbe3a7a5a	-0.18210736
223	0x39cddf03	0.00039266804
224	0x3db96274	0.090519816
225	0xbd2026e6	-0.039099596
226	0x3e78c063	0.2429214
227	0xbe3fae3f	-0.18718813
228	0x3a00fc8a	0.0004920444
229	0xbdd7fd62	-0.10546376
230	0x3e0fcfd0	0.14044118
231	0x3e60341f	0.21894883
232	0x3e1519e8	0.14560664
233	0x3e352b31	0.17692257
234	0x3c954466	0.018221091
235	0xbe6a2215	-0.22864564
236	0x3e393eea	0.18090406
237	0xbdebe008	-0.1151734
238	0xbdb73e78	-0.08947462
239	0x3d97ea4d	0.07417736
240	0x3d83413f	0.06408929
241	0x3d750588	0.059819728
242	0xbd75e80d	-0.060035754
243	0xbd7f81f9	-0.06237981
244	0x3dfcc461	0.12342144
245	0xbe10f8b0	-0.14157367
246	0x3e38911d	0.18024106
247	0xbe93c7a3	-0.28863248
248	0x3dd932d6	0.10605399
249	0xbd3243d9	-0.043521736
250	0xbe818187	-0.25294134
251	0xbdbd11c3	-0.092319034
252	0x3da69027	0.08132964
253	0xbe05d2b6	-0.13068661
254	0x3d645925	0.055749077
255	0xbd2a980f	-0.04164892

fc1.bias f4 [64]
0	0x3d9e4458	0.07727879
1	0xbcd85b67	-0.026410772
2	0xbd25c2fb	-0.04046915
3	0xbd8eadbe	-0.069667324
4	0x3e366e03	0.17815404
5	0xbcd434a3	-0.025904005
6	0xbdd3d4ca	-0.10343321
7	0x3d800fff	0.06253051
8	0x3c575e60	0.013145059
9	0xbe1fc5e5	-0.15602835
10	0x3dbec588	0.0931502
11	0x3e2a87fc	0.16653436
12	0x3ddc3e94	0.10754123
13	0x3d8c4c98	0.068505466
14	0xbdea7686	-0.11448388
15	0xbd2a645e	-0.041599624
16	0x3dc77908	0.09739882
17	0xbd96c099	-0.07360954
18	0xbd4fb12d	-0.050706077
19	0xbe71316c	-0.23554009
20	0xbe0de0b9	-0.13855256
21	0x3d93f85c	0.07225105
22	0xbd0448d7	-0.032296028
23	0xbe0b3e60	-0.13598013
24	0xbe276e61	-0.163507
25	0x3e286274	0.16443807
26	0xbddc9e89	-0.10772426
27	0xbe4aefba	-0.19818011
28	0x3e20f2ef	0.15717672
29	0x3e2bfd1e	0.16795775
30	0xbe28db3d	-0.16489883
31	0xbe5897b2	-0.21151617
32	0x3e0c7b79	0.13718976
33	0x3d386ee8	0.045027643
34	0xbddd9242	-0.10818912
35	0x3e005f0f	0.12536262
36	0xbd91b60f	-0.07114803
37	0x3cb258d7	0.021770878
38	0x3d1c72d8	0.03819546
39	0xbe20afca	-0.15692058
40	0xbde8c6e4	-0.113660604
41	0xbccf957c	-0.025339834
42	0xbe192586	-0.1495572
43	0x3e12e630	0.14345622
44	0xbc5faf8e	-0.013652695
45	0xbdcc4cd8	-0.09975594
46	0x3c36074f	0.011110141
47	0xbe457b0e	-0.19285223
48	0xbe21e796	-0.15811
49	0x3d91c9a1	0.07118536
50	0xbe228acf	-0.15873264
51	0x3da2b792	0.079451695
52	0xbdbe2261	-0.09283901
53	0xbd40e572	-0.047093816
54	0xbe3a8eed	-0.18218584
55	0xbc59d583	-0.013295534
56	0x3e126276	0.14295372
57	0x3d1f3892	0.03887231
58	0xbdd682a2	-0.10474135
59	0xbd37a744	-0.04483725
60	0xbd39c790	-0.045356333
61	0x3d70fa0f	0.058832224
62	0x3d80f5be	0.062968716
63	0x3cf294aa	0.029611904

fc2.weight f4 [64, 64]
0	0xbc59df77	-0.013297907
1	0x3de33fe9	0.11096174
2	0x3daf571f	0.08561539
3	0x3eed8aee	0.46395057
4	0x3d6e9c96	0.0582548
5	0xbe171042	-0.14752296
6	0xbc5b7726	-0.013395106
7	0xbd792712	-0.060828276
8	0xbd70b062	-0.05876196
9	0x3ce64c2f	0.028112499
10	0xbce57ccb	-0.028013607
11	0xbee70c84	-0.45126736
12	0xbdf19454	-0.117958695
13	0x3e4a1b51	0.19736983
14	0xbd514bfa	-0.051097848
15	0x3e21e604	0.158104
16	0xbcdc1f45	-0.02687038
17	0xbe9689c8	-0.29401994
18	0x3cef534f	0.02921453
19	0xbe0971c0	-0.13422298
20	0x3d129e89	0.035795722
21	0xbd7f3977	-0.062310662
22	0x3d39008e	0.045166545
23	0x3e119358	0.14216363
24	0xbebe3000	-0.37145996
25	0xbcab06c7	-0.020877255
26	0xbd67062c	-0.05640237
27	0x3e5426a0	0.2071786
28	0xbd54b35c	-0.051928863
29	0xbd8d2e6c	-0.0689362
30	0x3da66037	0.0812382
31	0xbd9b1f62	-0.07574345
32	0x3ddd24ea	0.107980564
33	0x3c553e63	0.013015362
34	0xbceab324	-0.028649874
35	0xbd0379a8	-0.032098442
36	0xbd5ba760	-0.053626418
37	0x3e5055a6	0.20345172
38	0xbe629cc9	-0.22130121
39	0x3d7ed6eb	0.06221668
40	0x3d930c42	0.07180072
41	0xbdb1599e	-0.08659671
42	0x3dda405b	0.10656806
43	0xbd95e5c4	-0.07319215
44	0x3d7567df	0.059913512
45	0xbd8cdb96	-0.0687782
46	0xbd004202	-0.03131295
47	0x3d988865	0.0744789
48	0xbd7234ce	-0.05913239
49	0xbe1ae377	-0.15125833
50	0x3dfc00fb	0.123048745
51	0xbea55e51	-0.3229852
52	0xbd7ed92e	-0.062218837
53	0xbea56714	-0.32305205
54	0xbdb37f10	-0.087644696
55	0xbd825dbf	-0.06365537
56	0x3d48b7a8	0.049003273
57	0x3e8fbfbc	0.2807597
58	0xbe810f7f	-0.25207135
59	0x3c82a3a8	0.015947178
60	0x3dca7242	0.09885074
61	0x3eb1dde6	0.34739608
62	0xbd8db5fd	-0.06919477
63	0x3eb0719f	0.34461686
64	0xbc691ada	-0.014227593
65	0x3dd9b57c	0.106303185
66	0xbdf3478a	-0.11878879
67	0xbe1d18d3	-0.15341501
68	0x3d77cf5d	0.06050049
69	0x3de521b5	0.1118807
70	0xbcc41047	-0.023933543
71	0x3da59cc5	0.08086542
72	0xbe2e01e9	-0.16992916
73	0xbe48acd3	-0.19597177
74	0xbc239c5b	-0.0099860085
75	0x3ec2f692	0.38078743
76	0xbdc371de	-0.09543203
77	0x3deae446	0.11469321
78	0x3dc7e9eb	0.09761413
79	0x3d8fb301	0.07016564
80	0x3deef671	0.11668099
81	0xbdc60e4c	-0.09670696
82	0x3dd800cb	0.10547026
83	0x3d7e03b6	0.062015258
84	0x3da61a0a	0.08110435
85	0xbe48b2b4	-0.1959942
86	0x3e8c5c0b	0.27413973
87	0xbd220cd6	-0.039563023
88	0xbe832ce1	-0.25620177
89	0xbe3008cb	-0.17190854
90	0xbe2a66dc	-0.166408
91	0xbe57619d	-0.2103333
92	0x3af1c35b	0.0018445061
93	0x3de7558f	0.11295616
94	0x3e822834	0.25421298
95	0xbd54d7c5	-0.051963586
96	0x3d67efa2	0.056625016
97	0xbca72f8f	-0.02040842
98	0xbd949d68	-0.07256585
99	0xbe276990	-0.16348863
100	0xbdd86a69	-0.10567171
101	0xbce2fc04	-0.027708061
102	0xbe04a585	-0.12953766
103	0xbe0f1cc5	-0.13975818
104	0xbe91c1b0	-0.28468084
105	0x3dcd95e2	0.100383535
106	0x3d91d9af	0.07121598
107	0xbdba7468	-0.09104234
108	0xbdb57efc	-0.08862111
109	0x3d1fb91a	0.038994886
110	0xbe4dfd5e	-0.20116183
111	0xbd92eb54	-0.071737915
112	0xbc7c392c	-0.01539449
113	0xbe186a3d	-0.14884277
114	0xbc85d13c	-0.016335122
115	0x3e31e557	0.17372642
116	0x3d23729a	0.039904214
117	0xbe2f82f5	-0.171398
118	0x3e5ae515	0.2137645
119	0x3d008841	0.03137994
120	0xbe7752fa	-0.24152747
121	0xbe604957	-0.21902977
122	0xbdbe70d0	-0.09298861
123	0xbd839acd	-0.0642601
124	0x3d5d1e24	0.053983822
125	0x3c5a75bd	0.013333735
126	0xbc3f6c60	-0.011683553
127	0xbe72f0ca	-0.23724666
128	0xbe43776b	-0.19088523
129	0xbcbf426d	-0.023347104
130	0x3ca97051	0.02068344
131	0x3e338dc4	0.17534548
132	0x3e9d9ae9	0.3078225
133	0x3df3c90b	0.1190358
134	0xbcdfd313	-0.027322328
135	0x3da911f7	0.0825538
136	0xbea0e011	-0.3142095
137	0xbe329c46	-0.17442426
138	0x3d4d14e2	0.050068744
139	0xbe656c17	-0.22404514
140	0x3e00206f	0.12512372
141	0xbc11c212	-0.008896368
142	0x3e002eb7	0.1251782
143	0x3dec9552	0.11551918
144	0xbe1a4b68	-0.15067828
145	0x3e106c81	0.14103891
146	0x3d0ce99a	0.034402467
147	0xbc35695b	-0.011072482
148	0xbd70fd90	-0.058835566
149	0xbc8c7938	-0.017147645
150	0xbde6e0ec	-0.11273369
151	0x3d1d5f79	0.038421128
152	0xbe07e745	-0.13271816
153	0xbea9327d	-0.33046332
154	0x3dc7c845	0.09754995
155	0x3de30ff0	0.11087024
156	0xbd8c4a90	-0.06850159
157	0xbdf3a002	-0.118957534
158	0xbe47e7f3	-0.19522075
159	0x3c94cd97	0.01816444
160	0x3d2b28f4	0.041787103
161	0x3bcef38f	0.0063156555
162	0xbe0320ce	-0.12805483
163	0x3e1cb610	0.15303826
164	0x3c807acb	0.015683552
165	0x3d06a38c	0.032870814
166	0x3e996637	0.29960796
167	0xbdddde68	-0.10833436
168	0x3e91886e	0.284244
169	0x3dab551e	0.08365844
170	0xbdc52d51	-0.09627784
171	0x3ceb50aa	0.028724987
172	0x3d0f1bf3	0.034938764
173	0x3e484da4	0.19560868
174	0xbd23d1a2	-0.039994843
175	0x3cf4963a	0.02985679
176	0xbe174cac	-0.14775342
177	0xbddcac96	-0.10775106
178	0xbb971812	-0.0046110237
179	0xbe4aa7a0	-0.19790506
180	0xbd89488b	-0.067032896
181	0x3c9e8bec	0.01935383
182	0xbe7b7568	-0.24556506
183	0xbc6ec4a8	-0.014573254
184	0xbe80369d	-0.25041667
185	0xbbf92a46	-0.0076039163
186	0x3edc9573	0.4308277
187	0xbb8639ae	-0.0040962314
188	0xbe41c3b3	-0.1892231
189	0xbdc3f206	-0.09567647
190	0xbe0e0fb0	-0.13873172
191	0xbe2d35f8	-0.16915119
192	0xbda09d0a	-0.07842453
193	0xbd69585c	-0.05696903
194	0x3d6ca514	0.05777462
195	0xbf0d36fd	-0.5516203
196	0x3d561575	0.052266557
197	0xbd0a2be7	-0.033733275
198	0xbe1b9db5	-0.15196879
199	0x3d5a2404	0.053257003
200	0xbd059a81	-0.03261805
201	0xbe2233ba	-0.15840045
202	0x3db0f0a0	0.086396456
203	0xbe13c1ed	-0.14429446
204	0x3d6f282d	0.058387924
205	0x3d0bf060	0.034164786
206	0x3e030cc5	0.1279784
207	0xbe66cfd1	-0.22540213
208	0xbd9187d0	-0.07105982
209	0xbd199a5c	-0.037500724
210	0x3cd0ae6a	0.025473792
211	0xbb81dad8	-0.003962856
212	0xbc83cd1d	-0.016089017
213	0x3e3bbf35	0.18334658
214	0x3d12fb0f	0.03588396
215	0xbdd7b469	-0.105324574
216	0x3dfe178e	0.124068365
217	0x3dfbcf85	0.122954406
218	0x3e6210b2	0.22076681
219	0x3dc0a498	0.09406394
220	0x3d9af05f	0.075653784
221	0xbef959e0	-0.48701382
222	0xbd1c75cd	-0.03819828
223	0x3e33113e	0.17487046
224	0xbc5a9f75	-0.013343682
225	0xbe0d1d29	-0.13780655
226	0x3bf4fdc6	0.007476541
227	0x3e650734	0.22366029
228	0xbe1d9fdd	-0.15393014
229	0xb9e233ab	-0.00043144575
230	0xbd90ab72	-0.070639506
231	0x3e37c445	0.17945965
232	0x3d8d95e5	0.06913356
233	0x3e87a0ed	0.26489964
234	0x3dc59e73	0.096493624
235	0x3d279bc2	0.040920027
236	0x3d97597a	0.07390113
237	0x3df3ee70	0.11910713
238	0x3de507af	0.11183106
239	0xbd6a8ca3	-0.057263028
240	0x3bbbbcee	0.0057293093
241	0xbe7c7673	-0.2465456
242	0xbde79552	-0.113077775
243	0x3cda4736	0.026645284
244	0x3e00a1e3	0.12561755
245	0xbd879409	-0.06620032
246	0x3d37eb1d	0.044901956
247	0x3d83abcb	0.06429251
248	0x3d7be61d	0.06149875
249	0x3c91d5a3	0.017802065
250	0xbe4889da	-0.19583836
251	0xbc78078a	-0.015138516
252	0x3be28ab6	0.0069135083
253	0x3e5b35de	0.21407267
254	0xbd971321	-0.073766954
255	0x3eba4a97	0.36385033

fc2.bias f4 [64]
0	0x3d34f073	0.044174623
1	0x3bdb749d	0.006697251
2	0x3d43fe33	0.047849845
3	0x3e221015	0.15826447
4	0x3e590bd2	0.21195915
5	0xbdf57cc2	-0.11986686
6	0xbdd99e6b	-0.10625919
7	0x3d384f74	0.044997647
8	0x3e59d9c0	0.21274471
9	0x3ebc7f5b	0.36815915
10	0xbd32dd9f	-0.043668386
11	0x3e48aa81	0.19596292
12	0x3e88f57e	0.26749796
13	0xbce1182d	-0.027477348
14	0xbdac680a	-0.084182814
15	0xbde31750	-0.11088431
16	0xbd3997f0	-0.045310915
17	0xbd188cd4	-0.03724368
18	0xbdd9bc9d	-0.10631678
19	0x3e49998b	0.19687478
20	0x3e71f738	0.23629463
21	0x3ebcbb3a	0.36861593
22	0xbdac95b6	-0.084269926
23	0xbcf9766d	-0.030451978
24	0x3cb12163	0.021622365
25	0xbda6b76d	-0.081404544
26	0x3da33866	0.079697415
27	0xbdde775d	-0.108626105
28	0x3cb703ea	0.022340734
29	0x3e15a4c0	0.14613628
30	0xbd442c20	-0.047893643
31	0x3c9f2cda	0.019430567
32	0xbcdec6e0	-0.02719444
33	0x3e168fb4	0.14703256
34	0x3e44f791	0.19235064
35	0xbdef781f	-0.11692833
36	0xbe14a9b5	-0.14517863
37	0xbe64b780	-0.22335625
38	0x3e1a9451	0.1509564
39	0x3e149667	0.14510499
40	0xbca87556	-0.020563763
41	0x3ed83e29	0.42234924
42	0x3ea4b75e	0.32171148
43	0xbc2c9fd5	-0.010536154
44	0x3d47e99e	0.04880678
45	0xbd9507a6	-0.072768494
46	0x3e40e1a1	0.1883607
47	0x3d9301ae	0.07178055
48	0xbcf35f06	-0.029708397
49	0x3d1f3228	0.038866192
50	0xbe263028	-0.16229308
51	0x3e3b95b8	0.18318832
52	0xbdb2714a	-0.087130144
53	0xbdfce4d3	-0.12348332
54	0x3da0f458	0.07859105
55	0xbd30c6b6	-0.043158256
56	0xbe2cb7d1	-0.16866995
57	0xbde76ef3	-0.11300459
58	0x3aa0fdd7	0.0012282681
59	0xbe2fc53c	-0.17165083
60	0xb9b82341	-0.0003512148
61	0x3e74b1f2	0.23896006
62	0x3e05617c	0.13025469
63	0xbd56965e	-0.052389495

fc3.weight f4 [4, 64]
0	0x3dab34a3	0.08359649
1	0x3ea68092	0.32519966
2	0x3e660ae5	0.22465093
3	0x3df83b88	0.1212073
4	0x3de6eb7a	0.11275382
5	0x3e8668cf	0.26251838
6	0x3e84d412	0.25943047
7	0xbdbb52fa	-0.09146686
8	0x3e9a3bbc	0.301237
9	0x3daca235	0.08429376
10	0x3ced87e6	0.028995465
11	0x3e2a943f	0.16658114
12	0x3dedc5ff	0.116100304
13	0x3e2e9b98	0.17051542
14	0xbd1c5030	-0.03816241
15	0x3dfc9f41	0.12335063
16	0xbca2181e	-0.01978689
17	0x3def11dc	0.11673328
18	0x3c6c5140	0.014423668
19	0x3e1f5d92	0.15563038
20	0x3da5c645	0.080944575
21	0x3db9ce08	0.090725005
22	0x3e08e734	0.13369447
23	0xbdd63015	-0.1045839
24	0x3be05219	0.0068457243
25	0xbea4e89d	-0.3220872
26	0x3ca4010a	0.020020027
27	0xbe5af612	-0.21382931
28	0x3ef7fe71	0.4843631
29	0x3da1cb89	0.079001494
30	0xbe350c08	-0.17680371
31	0x3df37e71	0.11889351
32	0x3e09ce43	0.13457589
33	0x3e466678	0.19375026
34	0x3da882c1	0.08228064
35	0xb96945dd	-0.00022246638
36	0x3e02e684	0.12783247
37	0xbe42c1b3	-0.19019203
38	0x3e4af31b	0.198193
39	0x3eaab392	0.33340126
40	0x3da78cfc	0.081811875
41	0x3db565df	0.08857321
42	0x3de14656	0.10999744
43	0xbdba504c	-0.09097347
44	0x3e80955f	0.2511396
45	0xbc958400	-0.018251419
46	0x3e097236	0.13422474
47	0x3ebe5a32	0.3717819
48	0xbe8b0cfc	-0.27158344
49	0x3e8d3b41	0.2758427
50	0x3d840aeb	0.06447395
51	0x3eba6be7	0.36410448
52	0x3d38797a	0.045037724
53	0xbd9e9673	-0.0774354
54	0x3dffd908	0.12492567
55	0x3dfc96c7	0.12333446
56	0xbf0b24c6	-0.54352987
57	0x3dd32d90	0.10311425
58	0x3dc6ead0	0.09712756
59	0xbe5ccf7c	-0.21563524
60	0xbe03fa4a	-0.12888446
61	0x3e514ab0	0.20438647
62	0x3e602ff8	0.21893299
63	0x3d8c802f	0.068603866
64	0x3e5dec1d	0.21672101
65	0x3ea5efd1	0.32409528
66	0x3e91788d	0.28412285
67	0x3e392172	0.18079165
68	0x3e0508ba	0.1299161
69	0x3e193051	0.14959837
70	0x3eb826da	0.3596714
71	0x3d9a3877	0.07530301
72	0x3e266ba5	0.16252
73	0x3dac5833	0.0841526
74	0x3df96eb1	0.12179316
75	0x3e4ab0e5	0.19794042
76	0x3d5e8535	0.054326255
77	0x3eb762de	0.35817617
78	0xbba66c75	-0.005078847
79	0x3ecd6803	0.40118417
80	0xbdb145ed	-0.086559154
81	0x3e09fe6e	0.13475963
82	0xbd01ebc6	-0.03171899
83	0x3de969fb	0.11397167
84	0x3e112383	0.14173703
85	0x3df196ec	0.11796364
86	0x3d4eceeb	0.0504903
87	0x3e94e882	0.2908364
88	0xbde0697c	-0.109576195
89	0x3d094976	0.033517323
90	0x3deaf0ad	0.114716865
91	0xbea28fb4	-0.31750262
92	0x3eb45543	0.352213
93	0x3dc8ece0	0.09810805
94	0x3d0ed2d9	0.03486905
95	0x3e048648	0.12941849
96	0x3b420aa2	0.0029608388
97	0x3c3542b1	0.011063264
98	0x3e19353c	0.14961714
99	0xbd2852fb	-0.04109476
100	0x3e091d49	0.13390078
101	0xbe9bcce1	-0.30429748
102	0x3e52d567	0.20589219
103	0x3e89a0f6	0.26880616
104	0x3e8a35d6	0.269942
105	0x3e295f8a	0.16540352
106	0x3ca1900a	0.019722003
107	0x3e4bd46a	0.19905248
108	0x3e4bb5dc	0.19893593
109	0xbd725aac	-0.059168503
110	0x3e111573	0.14168338
111	0x3e6aef52	0.22942856
112	0xbd0d8f56	-0.034560524
113	0x3e4cddc3	0.2000647
114	0xbd8c39fc	-0.06846997
115	0x3dec3109	0.1153279
116	0x3e3f9598	0.18709409
117	0x3e5a7b3d	0.21336074
118	0x3e41d582	0.18929103
119	0x3e82d87d	0.25555792
120	0xbdbaa364	-0.091131955
121	0xbde6f117	-0.11276453
122	0x3eb1149c	0.34586036
123	0xbe5aaa95	-0.21354134
124	0xbdac27d0	-0.08406031
125	0x3d99807a	0.07495208
126	0xbcbd9eb6	-0.023146968
127	0xbe18f8b6	-0.14938626
128	0xbc355f5e	-0.011070101
129	0xbd07e1f6	-0.033174478
130	0x3ea98e3f	0.33116338
131	0x3e23e661	0.16005851
132	0x3e4db9ab	0.20090358
133	0x3d98c8e2	0.0746019
134	0x3e8801ef	0.26563975
135	0x3c32d15e	0.010914175
136	0x3dc65eec	0.09686074
137	0x3e04b0e8	0.1295811
138	0xbe26c547	-0.16286193
139	0x3e9be19e	0.3044557
140	0x3e2945e3	0.16530566
141	0xbe199b12	-0.15000561
142	0xbd985c66	-0.074394986
143	0x3f2be682	0.671486
144	0x3d5bde3c	0.053678736
145	0x3e0b9076	0.13629326
146	0xbd359aff	-0.04433727
147	0x3dd95d37	0.106134824
148	0x3d3c065c	0.045904502
149	0x3e0e8601	0.13918306
150	0xbe8e1459	-0.277499
151	0x3e86391f	0.26215455
152	0x3e94f76b	0.29095015
153	0xbb494eba	-0.003071709
154	0x3ead4871	0.3384433
155	0xbe5c00fe	-0.21484753
156	0x3ee5e92b	0.44904456
157	0x3e8120d9	0.25220373
158	0xbdd6a24c	-0.104801744
159	0x3cc04e09	0.02347471
160	0xbe3af172	-0.18256167
161	0x3c2c4dda	0.010516608
162	0x3e1abff4	0.15112287
163	0x3dce4f8e	0.100737676
164	0xbe5a5ec0	-0.21325207
165	0xbec9c661	-0.39409164
166	0x3e4d9aa8	0.20078528
167	0x3ead01eb	0.33790526
168	0x3d8b9f10	0.06817448
169	0x3e1fd9f5	0.15610488
170	0x3e23ebdd	0.16007943
171	0x3e0e15a0	0.13875437
172	0x3c4fa6f1	0.012674079
173	0x3da5e46c	0.08100209
174	0x3ddaaa03	0.106769584
175	0x3e576c30	0.21037364
176	0x3e1147a7	0.1418749
177	0x3de418f5	0.11137573
178	0xbeb889f7	-0.3604276
179	0x3e8b591f	0.27216431
180	0x3ea2d5e3	0.31803808
181	0x3d515db8	0.051114768
182	0x3dd03391	0.101660855
183	0xba380837	-0.0007020267
184	0xbeab0556	-0.33402508
185	0xbd337d4e	-0.04382067
186	0x3decac6e	0.11556326
187	0xbe470d60	-0.19438696
188	0xbe111c6f	-0.14171003
189	0x3e1a90f2	0.15094355
190	0xbe07e7ca	-0.13272014
191	0x3e9faf25	0.31188312
192	0x3eaded4b	0.33970103
193	0xbc82bed6	-0.015960138
194	0x3d2b8b13	0.04188068
195	0x3e769f35	0.2408417
196	0x3d04056e	0.03223174
197	0x3cd8d411	0.026468309
198	0xbc4e533f	-0.01259309
199	0x3e5dcbc6	0.21659765
200	0x3e69be81	0.22826578
201	0x3e34a79e	0.17642066
202	0x3e58e3e7	0.21180688
203	0x3c30e82a	0.01079754
204	0x3ddb4b30	0.107077
205	0x3ed38f1d	0.41320124
206	0x3d4af967	0.049554255
207	0xbe4c8ed5	-0.19976361
208	0x3dbf5f59	0.09344358
209	0x3ee5a4f5	0.44852415
210	0x3dcf528a	0.10123165
211	0x3e348429	0.1762854
212	0x3db80d4b	0.089869104
213	0x3e373757	0.17892204
214	0xbe1aa1aa	-0.15100732
215	0x3ed12d38	0.40854812
216	0x3d3938d6	0.04522022
217	0xbef4afdd	-0.47790423
218	0x3e3c8f97	0.1841415
219	0x3d76efca	0.060287274
220	0x3ef190e1	0.47180846
221	0xbbc4131f	-0.0059837247
222	0xbebda403	-0.37039194
223	0x3d829a36	0.0637707
224	0xbe34ee49	-0.17669024
225	0x3e18cb4c	0.14921302
226	0x3ca2c7e5	0.019870708
227	0x3c3d49d8	0.01155325
228	0xbc7eb603	-0.015546325
229	0xbe0f8b86	-0.14018068
230	0x3e74fb8d	0.23924084
231	0x3dfc58c8	0.12321621
232	0xba385db7	-0.00070330076
233	0x3e498b1b	0.19681971
234	0x3e2a90d7	0.16656815
235	0xbe896377	-0.26833698
236	0x3eabd5f3	0.33561668
237	0xbd9ab098	-0.07553214
238	0x3db12c0f	0.08650982
239	0x3e830fd2	0.25598007
240	0xbdf6b302	-0.12045862
241	0x3dcd69b8	0.1002993
242	0x3e851d77	0.25999042
243	0x3e6e67e2	0.23281816
244	0x3ee80151	0.45313504
245	0xbe20f01f	-0.15716599
246	0x3e827f3b	0.25487694
247	0x3ece299c	0.4026612
248	0xbea99240	-0.33119392
249	0xbea1a014	-0.31567442
250	0xbf02d471	-0.5110541
251	0xbe1e36e6	-0.1545063
252	0xbe94aa25	-0.2903606
253	0x3ce2b308	0.02767326
254	0x3c7ee1a5	0.015556728
255	0x3e6be510	0.23036599

fc3.bias f4 [4]
0	0x3e754b9b	0.23954622
1	0x3e598bf5	0.21244796
2	0x3dffc9ec	0.124896854
3	0x3e2dcbce	0.16972277
